app/data/models/neural_network/simple_nn.pt (torch, 5984 bytes, 3 tensors)

weight f4 [64, 8]
0	0xbe183812	-0.14865139
1	0xbd6d119b	-0.057878118
2	0xbeaceddc	-0.33775222
3	0x3d4e4048	0.050354272
4	0xbe388836	-0.1802071
5	0xbe84ae74	-0.25914347
6	0xbeaa011d	-0.33203974
7	0x3d8bea8a	0.06831844
8	0x3db70f31	0.089384444
9	0xbe4d371d	-0.20040555
10	0x3e3f02f7	0.18653475
11	0x3e747192	0.23871449
12	0x3d1da7a1	0.03848994
13	0xbe5ce163	-0.21570353
14	0x3caa46da	0.020785738
15	0xbdab3abc	-0.08360812
16	0xbdacc1bc	-0.084353894
17	0x3e626be4	0.2211147
18	0xbe9a1a1d	-0.30098048
19	0xbea52e6a	-0.32261974
20	0xbd0248a8	-0.03180757
21	0xbe32ed00	-0.17473221
22	0x3e2fe7e8	0.17178309
23	0xbe0ea304	-0.13929373
24	0x3e77ba61	0.24192192
25	0xbc9780b0	-0.01849398
26	0x3e430faa	0.19048944
27	0x3e26fa86	0.16306505
28	0x3e4b8da6	0.19878253
29	0xbcd1e734	-0.025622942
30	0x3e53f98c	0.20700663
31	0x3d2f5de5	0.042814154
32	0xbe99c62f	-0.30034015
33	0x3da689ca	0.0813175
34	0xbe9a1e17	-0.30101082
35	0x3d3c7011	0.046005312
36	0xbe87fc6f	-0.2655978
37	0x3e2f3629	0.17110504
38	0x3e6dc0e6	0.23218116
39	0xbe765236	-0.24054798
40	0x3ea1980b	0.31561312
41	0x3dd49a02	0.10380937
42	0xbe8e4801	-0.2778931
43	0xbe851c3d	-0.25998107
44	0x3e8f2653	0.27958927
45	0x3e5b2abb	0.21403019
46	0x3d61b077	0.05509993
47	0x3d254802	0.040351875
48	0x3d89e690	0.067334294
49	0x3d931698	0.07182044
50	0x3e61f83c	0.2206735
51	0xbe506385	-0.20350464
52	0xbe9f6be5	-0.31137004
53	0x3e585143	0.21124749
54	0x3e13d9a6	0.14438495
55	0x3e8dc3af	0.27688357
56	0x3e1b1791	0.15145709
57	0x3e22b1af	0.15888093
58	0xbe4d9e49	-0.20079912
59	0x3e2b98bf	0.16757487
60	0xbca232c8	-0.019799605
61	0xbc84568e	-0.016154554
62	0xbbe96a64	-0.0071232785
63	0xbeab6de2	-0.3348227
64	0x3e15230c	0.1456415
65	0x3d4e5842	0.050377138
66	0xbd8a401a	-0.06750508
67	0xbe43be39	-0.19115533
68	0xbdc11910	-0.094286084
69	0x3e9e9eab	0.3098043
70	0x3e30df4a	0.17272678
71	0x3e3f3e00	0.18675995
72	0xbe3f8e43	-0.18706612
73	0x3e1daaca	0.15397182
74	0xbdbacfa9	-0.09121639
75	0xbd7ac0b7	-0.061218943
76	0x3e8a93a0	0.27065754
77	0x3e7447ce	0.23855516
78	0xbe57fefd	-0.21093364
79	0x3b4c3acd	0.0031162978
80	0x3e940e39	0.289171
81	0xbb951d27	-0.0045505944
82	0x3c8cbb64	0.017179199
83	0xbe8488ec	-0.25885713
84	0x3e2b1402	0.16706851
85	0xbd7fbc0e	-0.062435202
86	0x3cd270e8	0.025688604
87	0x3db0b463	0.08628156
88	0x3dd44d71	0.10366333
89	0x3e4cb891	0.19992281
90	0xbd32d541	-0.043660406
91	0x3e91d7fe	0.284851
92	0x3e0f5456	0.13997015
93	0x3e8eaa1c	0.27864158
94	0x3d8b0171	0.06787384
95	0x3ea0e748	0.31426454
96	0xbcd66564	-0.026171394
97	0x3e7236be	0.23653695
98	0xbe8ba33f	-0.27272984
99	0x3dc7a608	0.09748465
100	0x3e660d30	0.22465968
101	0xbe12e5dc	-0.14345497
102	0xbdf0ed44	-0.11764005
103	0xbdd24274	-0.10266581
104	0xbe53b7f2	-0.20675638
105	0x3d0300b2	0.031983085
106	0xbe8d8640	-0.27641487
107	0x3ea6cb89	0.3257716
108	0x3e33bbab	0.17552058
109	0xbde39c05	-0.11113743
110	0x3d6357f0	0.055503786
111	0x3e35f646	0.17769727
112	0x3e68a8f6	0.22720703
113	0xbdf81bbc	-0.12114665
114	0xbe486c13	-0.19572477
115	0xbe9edcc0	-0.31027794
116	0xbea5c7d9	-0.32379034
117	0xbe539667	-0.20662843
118	0x3e51ec4d	0.20500298
119	0x3df3a698	0.118970096
120	0x3e9bed80	0.30454636
121	0x3d8001fc	0.062503785
122	0xbe2e537b	-0.17024033
123	0x3e7059a1	0.2347169
124	0x3e3a4901	0.18191911
125	0x3ea7c04f	0.32763907
126	0xbe5d2694	-0.21596748
127	0x3de25132	0.11050643
128	0x3e6ac1f5	0.22925551
129	0x3cf101ed	0.029419864
130	0xbd80c9fe	-0.06288527
131	0x3eb4f5ba	0.35343724
132	0x3e7d177b	0.24715988
133	0xbe802efa	-0.2503584
134	0xbead2ca4	-0.3382312
135	0xbe9e908f	-0.30969664
136	0xbde34902	-0.110979095
137	0xbd976d6b	-0.07393917
138	0x3e1f48b8	0.15555084
139	0xbe96274d	-0.2932686
140	0x3d64b564	0.05583705
141	0x3d22f94a	0.03978852
142	0xbe639d0f	-0.22227882
143	0xbdaddb98	-0.0848915
144	0xbe7b563f	-0.24544619
145	0x3cb1993f	0.021679519
146	0xbd917707	-0.07102781
147	0x3d94eb20	0.07271409
148	0xbe45deaa	-0.19323221
149	0x3d3a7a34	0.0455267
150	0xbe8edd02	-0.2790299
151	0x3c92e384	0.017930754
152	0x3d8c4b0d	0.06850252
153	0xbe0492f4	-0.12946683
154	0xbeb2fee4	-0.3496009
155	0x3e20b88d	0.156954
156	0x3df874d3	0.121316575
157	0xbe27ad67	-0.16374741
158	0xbe48911c	-0.19586605
159	0x3e706063	0.23474269
160	0x3ae9f838	0.0017850464
161	0xbd6ef96e	-0.058343343
162	0xbe761bdf	-0.2403407
163	0xbdb5e97b	-0.088824235
164	0x3e4b1092	0.1983054
165	0x3e956a0f	0.2918248
166	0xbe45d480	-0.19319344
167	0xbeb3b3a5	-0.35097995
168	0xbda2dc2a	-0.07952149
169	0xbc9c849c	-0.019106202
170	0x3d8e4d94	0.069483906
171	0x3e1520e7	0.14563332
172	0xbe6c59d5	-0.23081143
173	0xbe899c82	-0.26877218
174	0xbeaa9e62	-0.33323961
175	0xbe78a6d8	-0.24282396
176	0xbd1e8572	-0.038701482
177	0xbde51cb5	-0.11187116
178	0xbd095e18	-0.033537
179	0x3ea3b9da	0.3197773
180	0xbe948ecf	-0.29015204
181	0xbe60fdd0	-0.21971822
182	0x3e8cea98	0.2752273
183	0x3eb28080	0.34863663
184	0xbe508d8c	-0.20366496
185	0xbe029cd7	-0.12755142
186	0x3e13398a	0.14377418
187	0xbce44ab4	-0.027867652
188	0x3e086ce9	0.13322796
189	0x3e0dbba5	0.13841112
190	0x3e1cf333	0.15327148
191	0xbe27660c	-0.16347522
192	0xbe52953f	-0.20564745
193	0xbdab8cec	-0.08376488
194	0xbe928a49	-0.28621128
195	0xbd3f2123	-0.04666246
196	0xbea25a21	-0.31709388
197	0xbe05489c	-0.1301598
198	0xbc855438	-0.01627551
199	0xbdbbb5d4	-0.0916554
200	0xbe9f1995	-0.31074205
201	0x3e5a0ec5	0.21294697
202	0xbe824004	-0.25439465
203	0xbd40043d	-0.046879042
204	0xbe4dadea	-0.20085874
205	0xbe0ef4fa	-0.13960639
206	0xbea92f88	-0.33044076
207	0x3e8b5770	0.27215147
208	0xbe626c28	-0.22111571
209	0xbdd0de0b	-0.10198601
210	0xbea598c3	-0.3234311
211	0xbe5afc00	-0.21385193
212	0x3dc48311	0.095953114
213	0xbe96399c	-0.29340827
214	0x3e35f2a5	0.17768343
215	0x3d996dc3	0.074916385
216	0xbe59b3b7	-0.21259962
217	0xbd995204	-0.07486346
218	0xbc23588c	-0.009969842
219	0x3c8cc90d	0.017185712
220	0x3e047e38	0.12938774
221	0xbdb8c192	-0.090212956
222	0x3de38e3b	0.11111113
223	0x3dd59071	0.10427941
224	0x3dab0a97	0.08351629
225	0xbe8fc58e	-0.2808041
226	0x3ddcfc9a	0.107903674
227	0x3e3f21c1	0.1866522
228	0x3d884e08	0.06655508
229	0x3e1c83d8	0.1528467
230	0xbe82a11d	-0.25513545
231	0xbe800b8f	-0.25008819
232	0x3e37f3b7	0.17964064
233	0x3e428e8c	0.1899969
234	0xbe29b159	-0.16571559
235	0x3e269fd0	0.16271901
236	0x3e5bb68e	0.21456358
237	0x3e8c0b9f	0.27352616
238	0x3ea08779	0.31353357
239	0x3e9c5d20	0.305398
240	0xbe076410	-0.13221765
241	0xbe4f57da	-0.20248356
242	0x3aee9fee	0.0018205622
243	0xbdd8045f	-0.10547709
244	0x3e930691	0.28715947
245	0x3d80fdd6	0.06298415
246	0xbe684432	-0.22682264
247	0x3e7ccca3	0.24687438
248	0xbe7c76ce	-0.24654695
249	0x3ccd33c9	0.025049107
250	0xbc9d71d0	-0.01921931
251	0x3ead8b85	0.33895507
252	0x3e6d74ea	0.2318913
253	0x3e973ad9	0.29537085
254	0xbea671e6	-0.32508773
255	0x3cc3b7be	0.023891326

bias f4 [64]
0	0x3e7f3bf5	0.24925216
1	0x3e653903	0.2238503
2	0xbe017293	-0.12641363
3	0xbe38ed3b	-0.18059246
4	0x3e26703c	0.16253752
5	0x3dd30d93	0.103053235
6	0x3e7af2b3	0.24506645
7	0x3cc33b83	0.023832088
8	0xbea1606e	-0.31518883
9	0xbea8b000	-0.32946777
10	0xbe56d918	-0.20981252
11	0xbe2723a3	-0.16322188
12	0x3e1e25bb	0.1544408
13	0x3e2231ae	0.15839264
14	0x3e11e2d7	0.14246689
15	0xbe76cd59	-0.24101771
16	0xbdd101a6	-0.102053925
17	0x3ea997e4	0.33123696
18	0x3d9c0db7	0.076198034
19	0xbe61f991	-0.22067858
20	0x3bf0685c	0.0073366594
21	0x3c869176	0.016426783
22	0x3ddc482f	0.107559554
23	0xbd70bf8c	-0.058776423
24	0x3e40730e	0.1879389
25	0x3e64d982	0.22348598
26	0xbe281b43	-0.1641665
27	0x3e08214e	0.13293955
28	0x3e8ec5d7	0.27885315
29	0xbe16668a	-0.14687553
30	0xbd9b012c	-0.07568583
31	0x3e81eaf7	0.25374576
32	0x3e0bcc71	0.13652207
33	0x3e7455ea	0.23860899
34	0x3e9c59af	0.30537173
35	0xbca3eed7	-0.020011349
36	0xbc5803fe	-0.013184546
37	0x3e931dee	0.28733772
38	0x3c8f5834	0.017498113
39	0x3e51c3d8	0.20484865
40	0x3e2cbb7b	0.16868393
41	0x3eb2818c	0.3486446
42	0x3eaf167b	0.3419684
43	0xba1802a6	-0.00057987345
44	0xbdb0e61e	-0.08637641
45	0xbdd682b0	-0.104741454
46	0x3e8ae886	0.27130526
47	0x3e862671	0.26201203
48	0xbd39a1ba	-0.04532025
49	0x3dfec0ca	0.12439115
50	0x3d9c9660	0.07645869
51	0xbeaaae44	-0.3333608
52	0x3e9145d8	0.283736
53	0x3e530503	0.2060738
54	0x3c8bb378	0.01705335
55	0xbeb3207c	-0.3498572
56	0x3e86c6b3	0.2632347
57	0xbea0fbcc	-0.31442106
58	0xbe8f2aa8	-0.27962232
59	0x3d5c1195	0.053727705
60	0x3d5a0fde	0.05323779
61	0xbdd66160	-0.104677916
62	0xbd30d4aa	-0.043171562
63	0x3eb141db	0.34620556

weight f4 [1, 64]
0	0x3d8c0878	0.06837553
1	0xbd93d613	-0.07218566
2	0xbdce83a5	-0.10083703
3	0x3c7c8cbf	0.015414416
4	0xbc3b974a	-0.011449644
5	0xbc8de8aa	-0.017322857
6	0x3bbc69c4	0.005749913
7	0x3dda33c2	0.10654403
8	0x3b3d71be	0.0028906907
9	0xbd4cffaa	-0.050048508
10	0xbd19ab93	-0.03751714
11	0xbcca7213	-0.024712598
12	0xbd3a9d5f	-0.045560237
13	0x3d453a5a	0.04815135
14	0x3dc5a87a	0.09651275
15	0x3db903ee	0.09033953
16	0xbd4b6644	-0.049658075
17	0xbe02d83e	-0.12777802
18	0xbd784683	-0.06061412
19	0x3d4952c6	0.049151205
20	0x3c40a2c5	0.011757557
21	0xbbc4a70e	-0.00600136
22	0xbbc64673	-0.0060508787
23	0xbbabe49b	-0.0052457578
24	0xbcba2ae8	-0.022725537
25	0xbdbe7adc	-0.09300777
26	0x3d4a2089	0.049347434
27	0x3d95e67d	0.07319353
28	0xbd064802	-0.032783516
29	0x3d93cd75	0.07216922
30	0x3d9a3e54	0.075314194
31	0xbd9aeee1	-0.07565094
32	0x3ddf2d96	0.10897367
33	0x3cfa2d80	0.030539274
34	0x3bde4b92	0.006783911
35	0xbd78253a	-0.060582377
36	0xbd7268b0	-0.05918187
37	0x3d93f245	0.072239436
38	0x3d2f2675	0.042761285
39	0xbd17cfe2	-0.037063487
40	0xbd1ad4d2	-0.037800618
41	0xbd1ee593	-0.038793158
42	0xba9de857	-0.0012047392
43	0x3cdc00c2	0.02685583
44	0x3ca6c0fb	0.020355692
45	0xbcba8372	-0.022767756
46	0x3d6b7fb8	0.05749485
47	0xbbfb6f73	-0.007673198
48	0x3e074c00	0.13212585
49	0xbd3b9a59	-0.045801494
50	0x3cb3e946	0.02196182
51	0x3c898474	0.016786791
52	0xbcf0f26d	-0.029412473
53	0x3cab6bfb	0.020925513
54	0xbd4f5780	-0.050620556
55	0xbd34cb5b	-0.044139247
56	0xbda44f23	-0.08022907
57	0x3d85a354	0.06525293
58	0x3d62aeba	0.055342413
59	0xbd9a3fa0	-0.07531667
60	0x3c28fd56	0.010314306
61	0x3d4cfce0	0.050045848
62	0xbde367ca	-0.111037806
63	0x3db755d0	0.08951914
