app/data/models/neural_network/simple_nn.pt (torch, 5984 bytes, 3 tensors)

weight f4 [64, 8]
00000000: a395 d2bd 389c b5bd 3f4f 963e d78d 9b3e
00000010: abda 983c 12d2 13be 68e5 8b3c 9bad a9be
00000020: b8a8 343e 2e65 4fbd 87da 653d 55e1 96be
00000030: 0826 93bd 61ff a4bc 844f c9bd 972c ac3d
00000040: 5700 763d 6545 5abe 4d73 9b3d 564a afbd
00000050: 3c50 b33d 8f33 32bd e39e 9a3e 77cf 2abe
00000060: e692 873d 0406 89be 7784 6dbe f355 b23d
00000070: f268 a6be 30fa 9cbe 5768 823e b6c1 84be
00000080: 0dbb aabe 5bf1 d23c b99b 1abe 0239 2cbe
00000090: 552c 093e 8aa4 fa3d 1696 5dbe 2ad3 babe
000000a0: 5999 463d 9590 893d f05b b1bd ebbd 8bbd
000000b0: 048c b23d 5b62 013e 7357 293e 529a 443d
000000c0: 1a0d 2fbe c996 18be 5bf7 0d3e cb90 1ebe
000000d0: 5f51 683d 4bb4 7d3e fc9d d53d 9de5 853e
000000e0: 878a b43d 0724 89be 2623 2f3e 16cb a63e
000000f0: 9778 ccbd 2492 883e 9242 b6bd c8f7 51bd
00000100: 9aec 193d 468b c33c 8697 0cbe 1e06 b1be
00000110: 70d2 b63d 8352 9c3e 7ea9 6a3e 299c 2b3d
00000120: 0d1e 70bd 0b5c 83be 9590 d73d 7ef0 173e
00000130: 0b4b aa3d e096 643e 1a4b a23e c2a6 f23d
00000140: 5c0f d83d 18d7 a1be efd1 063e 2429 b33c
00000150: 0941 2dbe 7837 073e f420 823e 8642 983e
00000160: 2dd3 b53e 182c 623e 8986 3cbe bce5 023d
00000170: 6bd0 cc39 c76e 86be d929 7e3d dae8 b8bd
00000180: de7c b03e 5fc8 82be f2e9 283d bbcd 78bd
00000190: 928b a9be 8766 a43c cfc3 793e 8e7c b53e
000001a0: 160e 70be cb16 78be a4fa 1bbc 90ef 5bbe
000001b0: c9b9 6fbe d249 0fbe 92f8 8b3d 462b 8d3e
000001c0: 1684 aa3d cc2c a6bd bca1 093e 30d5 3d3c
000001d0: 0736 e13d 79ce 6b3e b4ac 5e3e abb6 cc3d
000001e0: 6c7a a0be ce8c b7be 4673 923d ab43 803e
000001f0: e95d 823e 297b 42be 9917 a33e 56c1 e83d
00000200: 9947 99be 9963 2a3e 7f69 84be 32df 2cbe
00000210: 7110 e53d a6f4 ea3c 1c94 053e 3dff ef3d
00000220: e06f 083e 3aab a7be a13f f33c c0ef 92bc
00000230: bd62 213e dbd8 63bd e431 1dbd b200 ecbd
00000240: 54d0 ac3e 6158 a6be 8440 873e c895 a13e
00000250: a888 a8bd f246 83bc e34a 8d3e 5557 853d
00000260: 132d 673e 3b4d aebd b1a4 5fbe 01f7 00be
00000270: 5e5f 8c3d ca0e 7dbe 0e7a 06be 57f3 35be
00000280: 3109 dbbd d2a8 89be 8c17 abbe 9719 a83d
00000290: d597 08be 85ef 2fbc 89d6 6dbd b35d 99be
000002a0: bf6a d1bd 3dd2 41be bd48 82be 7a65 febd
000002b0: f1da 903e 26b9 a83d 3623 c0bd cd11 a6be
000002c0: b5a7 9abe 0659 84be 596f 7f3e 2da8 113e
000002d0: e8e5 66be 6a0b 00be 4acf 833e c57e 16be
000002e0: 6840 d6bc 7980 4cbe f59d 5a3e 0431 a73e
000002f0: 10c8 87be 3818 fb3d 93e5 213e 5c0d 2b3e
00000300: ee6f 28be 2df2 823d 570b 8ebe cbe4 27bc
00000310: eb5c 053d 7447 16bd f914 9bbe 9e86 fbbc
00000320: bd24 9bbe 9fd1 f8bd 1f5a 84be 9c89 2ebe
00000330: 5d94 4e3e 3e32 09be 2b98 74be 23aa cbbd
00000340: bd13 95be 821d 9e3d 13e1 4bbe eda4 7e3e
00000350: fd17 90be 64c6 0e3e 77a3 6abd 33eb 55be
00000360: e232 9a3c f63d 5dbe b5e3 babc 6f3e a53d
00000370: aba0 f8bd 36a3 573e 6d54 d1bc ef15 933e
00000380: 9047 7f3e cf73 38bd 79c8 0c3e ef9e 8bbd
00000390: a8a1 8bbe 7fb8 a43d 25c9 943e 5aa0 eabc
000003a0: d569 463d 36d6 62be 3047 dfbd 7d93 b13e
000003b0: fb63 a9be 2b91 863e 991e 0dbe 9a4b 953e
000003c0: baab 20bc 2cde 883d 7ac5 0a3d 8424 03be
000003d0: efe8 fa3d b7fe acbe f173 85be f77f 653e
000003e0: 8de5 c73d 4a99 e13d 526c 763d fb54 893e
000003f0: b11a 863d 6c9c b7bd 0215 b93d f0fa a9be
-0.10282447 -0.08867687 0.29357335 0.30381653 0.018658957 -0.14435604 0.017077163 -0.33140263
0.17642486 -0.0506336 0.056116607 -0.2946879 -0.07184988 -0.020141305 -0.098296195 0.08406942
0.060058918 -0.21315534 0.07590351 -0.085591 0.08755538 -0.0435062 0.30199346 -0.16680704
0.066198155 -0.26762402 -0.23195063 0.087078 -0.32501942 -0.30659628 0.2547023 -0.2592904
-0.33345833 0.025749853 -0.15098466 -0.16818622 0.13395818 0.122384146 -0.21639284 -0.3648923
0.048486087 0.0671703 -0.08660114 -0.06823333 0.08718112 0.12635176 0.16537265 0.047998734
-0.17094842 -0.1490127 0.1386389 -0.15484922 0.056718227 0.24775808 0.10430524 0.26151744
0.088154845 -0.267853 0.17103252 0.32576817 -0.09983938 0.26673996 -0.08899416 -0.051261693
0.037579156 0.023870122 -0.13729677 -0.3457498 0.089268565 0.305317 0.22916219 0.041896973
-0.05862241 -0.2565616 0.10525624 0.14837834 0.083150946 0.22323179 0.31697923 0.11848213
0.105498046 -0.31609416 0.13166021 0.021870203 -0.1691934 0.13204753 0.25415766 0.29738253
0.35512677 0.22087133 -0.18410696 0.031957373 0.00039065196 -0.2625639 0.062051628 -0.09028788
0.34470266 -0.25543496 0.041238733 -0.060743075 -0.33114296 0.02006842 0.24391101 0.3544659
-0.23442873 -0.24227445 -0.009520207 -0.21478105 -0.23410715 -0.13993004 0.068345204 0.27572078
0.08325975 -0.08114013 0.13440603 0.011586472 0.10996633 0.23027982 0.21745569 0.09995779
-0.313434 -0.35849613 0.07150893 0.25051627 0.25462273 -0.18992294 0.3185394 0.11365001
-0.29937437 0.16639556 -0.25861737 -0.16882017 0.111847766 0.02868111 0.1304478 0.11718605
0.13323927 -0.32747823 0.029693427 -0.017936587 0.15760322 -0.05562673 -0.038377658 -0.1152357
0.33752692 -0.32489303 0.2641641 0.31559587 -0.0822919 -0.01602504 0.27596197 0.06510798
0.22575788 -0.08510824 -0.21840169 -0.12594225 0.06854127 -0.24712673 -0.13132498 -0.17768608
-0.106951125 -0.26886612 -0.33416402 0.08208006 -0.1333917 -0.010738258 -0.058065925 -0.299543
-0.10225438 -0.18927856 -0.2544612 -0.12421699 0.2829204 0.08238439 -0.09381716 -0.32435456
-0.30206075 -0.2584917 0.2494482 0.1422431 -0.2254864 -0.12504354 0.25744087 -0.14696796
-0.026153758 -0.19970883 0.21349318 0.32654583 -0.26519823 0.12260479 0.15810232 0.16704315
-0.16448948 0.063938476 -0.27743027 -0.01024742 0.032559317 -0.036689237 -0.30289438 -0.030703839
-0.30301467 -0.12149357 -0.25850007 -0.17044681 0.20173784 -0.13398072 -0.23886172 -0.099445604
-0.29116622 0.07720472 -0.19910078 0.24867602 -0.28143302 0.13942868 -0.0572848 -0.20890503
0.018823091 -0.21605667 -0.022813657 0.08068549 -0.1214002 0.21058354 -0.025552953 0.28727672
0.24929643 -0.04503232 0.13748349 -0.068174236 -0.2727177 0.08043002 0.2905971 -0.028640915
0.048440773 -0.22152027 -0.1090225 0.34682837 -0.33084092 0.2628263 -0.13781203 0.29159242
-0.009806568 0.06683001 0.033879735 -0.12806898 0.1225146 -0.33788082 -0.2606502 0.22412096
0.0976058 0.11015566 0.060161896 0.26822647 0.0654806 -0.08965382 0.0903721 -0.33199263

bias f4 [64]
00000000: 42dc b7bd 9fc3 613d edec 6cbe cab9 773e
00000010: 62f7 d0bd 5ca2 433e 3eed 793e 78d0 9c3d
00000020: 0520 763e 9878 3c3e 365d 3dbe 3d22 5bbe
00000030: 5ecb 6fbe 8e62 543d 80de f0bc 1160 99bc
00000040: ea4c 41be 2143 f53d b5f5 a2be dabd 82be
00000050: abde ae3e 38de 48be 4575 d03b d27a 783c
00000060: cf5e 3c3d 3bf9 93be 6608 a53e 8284 873e
00000070: c362 a63e 7ad1 3a3e b8e1 af3e e247 8dbc
00000080: 92ce aabe f9f4 6abe 9750 9f3e 9abd 79be
00000090: 742e a03e cb6f 49be 60ec 24be b3d7 8abd
000000a0: 7b16 a8be 80eb 51be acf9 603e f625 c23c
000000b0: 6f70 08bc 5f3d 74bd 7530 9a3e 5bff 013b
000000c0: 54ac 753d a2f4 8f3e 2ddb 543e 8cb5 a9be
000000d0: 0537 9b3e efdf 233c bfcc 0c3d 3e4c 873e
000000e0: b1b4 fe3d 3f9a 6bbe 8d44 973d b2e6 98bd
000000f0: 0da8 c23d d671 2abe d255 f63d 490d a43e
-0.08977558 0.0551182 -0.23137255 0.24191967 -0.102034345 0.19104904 0.24406907 0.0765695
0.24035652 0.18405378 -0.18492588 -0.2139978 -0.23417422 0.0518518 -0.029402971 -0.018722566
-0.18876997 0.119756944 -0.31828085 -0.2553547 0.34154257 -0.1961602 0.006361636 0.015166001
0.045988854 -0.28901085 0.3223297 0.26468283 0.32497224 0.18243971 0.34351897 -0.01724619
-0.33360726 -0.22945012 0.31116173 -0.24388734 0.3128544 -0.19671552 -0.16105795 -0.067794226
-0.3282965 -0.20499992 0.21970242 0.023699742 -0.0083275875 -0.05962884 0.30115095 0.0019836042
0.059978798 0.28116328 0.20786734 -0.33146322 0.30315414 0.01000212 0.03437495 0.26425356
0.12436808 -0.23008059 0.07386122 -0.07465877 0.095047094 -0.16644987 0.12028088 0.32041386

weight f4 [1, 64]
00000000: 9358 b3bd 11b8 54b9 a58b 383d f00e b2bd
00000010: 96e2 4dbd 2fd1 313b dbb3 e5bc 997d a6bc
00000020: a470 b9ba d4cf 6a3c dd01 95bd 7db4 3d3d
00000030: c81e 8cbd 9866 cb3d 3d51 9abc ff93 553d
00000040: ad4d 933c ff23 543d ee8b 603d ef7d 9e3d
00000050: 2096 a5bc 76f0 9fbd 3e16 babd 63bd 9e3c
00000060: 7955 c3bc b11f 98bc 0799 bb3d fe9b 82bc
00000070: 8647 f53c 7603 cc3d 69bf a2bb 7b73 45bc
00000080: 61dd 143c 96fb 943c 661f 283c e08e d6bb
00000090: 0826 f2bd 2949 32bd 8c9c 3939 16ad 1b3d
000000a0: b19f 873c 6c64 f83c a9c5 e2bc 6c4f 73bc
000000b0: 1fbc 253d 13a7 e3bb 10bb 723b 203e b03c
000000c0: 00c2 74bc f7ed 64bb 17ca 43bc 87f6 05bd
000000d0: 3fd2 cabc 5148 e33d 7f66 c93b 3bfd 213c
000000e0: b567 893d d1d7 49bb 588b 823d da2e 06be
000000f0: 6781 6abb 66ce 2b3b f4f9 7abc 436e f5bd
-0.087571286 -0.00020286466 0.04505505 -0.08694255 -0.050264917 0.002713274 -0.028039863 -0.020323562
-0.0014147949 0.014331777 -0.07275746 0.046314705 -0.068418086 0.099316776 -0.018837566 0.052143093
0.017981375 0.05179214 0.054820947 0.07738864 -0.020213187 -0.07809536 -0.090862736 0.019377416
-0.023844467 -0.0185698 0.09160047 -0.015943523 0.029941332 0.099615976 -0.0049666655 -0.0120514585
0.009085984 0.018186372 0.010261392 -0.0065477937 -0.1182366 -0.043526802 0.00017701293 0.038006864
0.016555639 0.030321322 -0.027682142 -0.014850479 0.04046261 -0.006947407 0.0037037767 0.021513999
-0.014938831 -0.0034931877 -0.011950037 -0.03270581 -0.024758456 0.11097778 0.0061462517 0.009887035
0.06709234 -0.0030798803 0.06374234 -0.1310381 -0.0035782696 0.0026215552 -0.0153183825 -0.119839214
